data/deep_nn_trump_selector.pt (torch, 66742 bytes, 10 tensors)

fc.0.weight f4 [128, 36]
00000000: b458 b03d a8da d23d 686f 953d d733 b13d
00000010: 1fa3 863d 0650 a53d ab48 9e3d 8421 a43c
00000020: 117e 243b ed52 9f3c a969 a83c 529f df3b
00000030: 0732 f13c f527 babd 53af 96bc 7086 0cbd
00000040: ada5 39bd bdf1 63bd 5dce 743c 0d72 a53c
00000050: 684c e63b c9b6 d13d ff39 b9bd 7420 dd3c
00000060: ee6a 14bd f846 05bd 190a 01bd 080d 3c3d
00000070: ac72 ef3b 1cd6 e7bc 3d2e 0bbb c529 54be
00000080: e2f3 b33c c6db e5bc d80c 69bd c08f c4bd
00000090: 29bf d43d 114c a23d 9251 9d3d b0ab 993e
000000a0: a350 b63d 35ab 783e 2d07 253e 0000 2e3e
000000b0: 3b7a 773e 324b 31be 6289 f4bd cdb6 00be
000000c0: 2a0d 75be 7866 03be d5d1 17be 679a 92bb
000000d0: 6392 49bc bbc1 e83d 4fe0 8fbc 86bf 09bc
000000e0: c40e 50bd 5388 97bc 6537 f53b dd20 173c
000000f0: f7f6 943d b028 933d 57dd 5f3e ff43 20bd
00000100: a0c1 bebb fa02 7cba 9e7e 4ebd e2ae 1c3c
00000110: 5384 133d 49ed e03d 0a70 193e 57bd 203e
00000120: f2e5 bfbd 680a b6bd cc1c 96bd ffe0 84be
00000130: cb0f f9bd 5a9d 30be d67c 973c aa52 fc3c
00000140: 6bb6 cd3d 5151 443e 8e4f f43d 7ac1 f83d
00000150: c6d3 c33e cff5 193e 8d00 a53e ac45 2e3e
00000160: 165e 3b3e 904c 8d3e 40ac 373e c9e7 763d
00000170: d250 8e3d 49ba 993e d07e fd3d 0044 723e
00000180: bd57 123e d240 043e 24bf 853e 1aea c13d
00000190: 8809 fa3c 39ec 933c a29c 243d 7ce9 d7bc
000001a0: 6a07 413d c763 b93d 69c1 ff3d 8a8f 043e
000001b0: 85e4 43bd c344 7cbc 09da 9dbc a082 a33b
000001c0: d7ed a6bc 97eb a9ba 2ff5 b0bb a3fb ff3b
000001d0: ad63 983c c231 acbd 7fc0 b6bd 7966 98bd
000001e0: 0130 42bd fe31 7dbd 8d98 14bd 6efe 06bd
000001f0: c171 ebbc 2fd9 19bd 038f 613e b110 643e
00000200: 0ee7 333e fbff 673e efca f03d 1f79 e23d
00000210: b4e2 8c3d 09df 8e3d a3d0 a03d d6bb 11bd
00000220: 97f4 92bd 771c 82bd ac58 84bd 99a1 86bd
00000230: 1bc6 79bd 6392 59bd cf48 7bbd b351 50bd
00000240: eb38 3f3c e622 f83b e8e7 d63b 96ad 163c
00000250: 4598 443b d177 b1ba 2c01 8ebb 23e3 07bc
00000260: a71a 77bc 43ed 19bd ae6f 4ebd 7963 4dbd
00000270: 7806 3abd 6431 54bd ff68 37bd 20d2 86bd
00000280: 2345 31bd b2ba 92bd 21b5 133c 4287 9abb
00000290: 72b8 a53a fe91 f33b d7f3 33bb e318 1f3b
000002a0: 63e6 b8bc 3331 c3bc 23ab 58bd c85a 8f3e
000002b0: 0295 8a3e ea3b 893e 0a37 7f3e 5e30 743e
000002c0: 4266 883e 8834 823e ff80 b73e 7889 b3be
000002d0: b14d 5cbc 395b 84bc c6c8 d33a 202f 343e
000002e0: de94 4dbb 4a7c 8a3d b08b e93c ad6a 023d
000002f0: 020a 973c 16b9 113e 560b 803d fefe 1abb
00000300: 6e73 803c 65fe 32bd fb3c 88bd 3455 06bd
00000310: 1787 8fbd 1e9f 66bd f351 353d 3563 9c3b
00000320: 34b3 0abd f2bd 8cbd d31b f9bd 4514 02be
00000330: 9c57 babd 33cc 05be c94a f9bd 2abc bb3d
00000340: 754c 7f3d b5b6 a6bb 63f0 263d eaa7 fcbd
00000350: 4f2b a43b b2be 2ebc 2bd7 63bd 9f98 69bd
00000360: 4027 a53d fe2b c53d aee1 8b3d 9299 a93d
00000370: bf58 333d f863 4a3d 24b6 ccbc 1200 e3bd
00000380: aecd b7bd a476 203e d559 f93d be6c 753d
00000390: bc31 b23d 3d35 843b f3df 4a3d 8d70 bebc
000003a0: ae37 7abd e248 fdbd c090 543c 83ee 813c
000003b0: c38e 62bd 2c4d bebd 97a5 18be 8b23 05be
000003c0: f9d9 fdbd e868 2fbe 3d96 d9bd 0622 b9bd
000003d0: eba0 96bd 92cb efbc 235e 45bd b0b1 0bbe
000003e0: d173 0dbd fc31 a7bd 3adf 20bd 8fc4 4bbd
000003f0: 5459 143d f295 ba3c df13 133d 9789 903c
0.08610669 0.102956116 0.0729664 0.08652466 0.06574082 0.08071904 0.07728704 0.020035513
0.0025099555 0.019448722 0.020558195 0.0068244124 0.0294428 -0.090896524 -0.018394148 -0.034307897
-0.045324016 -0.05565046 0.014941779 0.020195985 0.0070281513 0.102399416 -0.09044265 0.026993014
-0.03623479 -0.032538384 -0.03150377 0.045910865 0.007307371 -0.028300337 -0.0021237277 -0.20719059
0.021966878 -0.028058898 -0.056897014 -0.09597731 0.103880234 0.07924665 0.07681574 0.300138
0.08902099 0.2428406 0.16116019 0.16992188 0.24167721 -0.17313841 -0.11940266 -0.12569733
-0.23930803 -0.12832057 -0.14826138 -0.0044739726 -0.012302968 0.11365076 -0.017563013 -0.008407479
-0.05079533 -0.018497622 0.00748341 0.009224144 0.07273667 0.07185495 0.21861778 -0.039127346
-0.0058214217 -0.00096134807 -0.05041372 0.00956318 0.036014866 0.109827586 0.14984146 0.15697227
-0.093700305 -0.088887036 -0.07329711 -0.25952908 -0.121612154 -0.17247525 0.018492144 0.030801136
0.10044559 0.19171645 0.11929236 0.12146278 0.38247508 0.15035175 0.32226983 0.17018765
0.1829761 0.27597475 0.17936802 0.06027964 0.06949009 0.30024937 0.12377703 0.23658752
0.14291282 0.12915352 0.2612239 0.094684795 0.030522123 0.018056976 0.04018844 -0.026356451
0.04712621 0.09052234 0.12488062 0.12945381 -0.047825355 -0.015397253 -0.019269006 0.004989937
-0.020377083 -0.0012963888 -0.005400322 0.00781198 0.018602217 -0.08407928 -0.089234345 -0.0744142
-0.04740906 -0.061815254 -0.036278296 -0.032957487 -0.028740766 -0.037560638 0.22027211 0.22271992
0.17568609 0.22656243 0.117574565 0.11058258 0.06879178 0.06976134 0.07852294 -0.035579525
-0.07175558 -0.063530855 -0.06462225 -0.06573791 -0.060979944 -0.05311812 -0.061348733 -0.050859164
0.011671285 0.0075725196 0.006558407 0.00919666 0.0029997986 -0.0013539736 -0.004333636 -0.0082939
-0.015082038 -0.037579786 -0.050399475 -0.050143693 -0.045416325 -0.051804915 -0.044777866 -0.06583047
-0.043278825 -0.071645156 0.009015352 -0.004715831 0.001264347 0.007433175 -0.0027458572 0.0024276308
-0.022570794 -0.023827171 -0.052897584 0.27998948 0.2706681 0.26803523 0.2492334 0.23846576
0.26640517 0.25430703 0.35840604 -0.35065818 -0.013446257 -0.01615678 0.0016157858 0.17596102
-0.003136925 0.067619875 0.028508991 0.031840015 0.01843739 0.14230761 0.06252162 -0.0023650522
0.015680041 -0.04369964 -0.06652256 -0.0327961 -0.07008188 -0.05630409 0.044267606 0.0047725686
-0.033862308 -0.06872167 -0.1216351 -0.12703045 -0.090987414 -0.13066177 -0.12172467 0.09166749
0.062328774 -0.0050876983 0.040756594 -0.123367146 0.0050100456 -0.0106655825 -0.055625122 -0.057030316
0.08064127 0.096275315 0.06830154 0.08281244 0.043785807 0.049411744 -0.024989195 -0.11083998
-0.08974777 0.15670258 0.12175337 0.059918158 0.08700892 0.004034667 0.04952998 -0.023247028
-0.061088257 -0.12367417 0.012973964 0.015860802 -0.05531193 -0.09292063 -0.14906918 -0.1300184
-0.123950906 -0.17129862 -0.10624359 -0.090396926 -0.073549114 -0.029271875 -0.04818548 -0.13642001
-0.03453428 -0.08163831 -0.039275385 -0.049748 0.036218002 0.022776578 0.035907622 0.017643733

fc.0.bias f4 [128]
00000000: 4db3 db3c 0396 2a3e 3301 b83e 016a 033d
00000010: fd75 ff3d 6cbd 52bd 99ff c1bd eba5 073d
00000020: 8f8b 943d 6ed4 8f3c 992b b33d b1ee af3d
00000030: ee49 5f3d d85e b53d fe3a ab3d d1c3 b83d
00000040: 0cde 843d 5b7a 283d 8040 d13c 4158 a93d
00000050: df45 eb3d e85e 7f3c eb04 e0bc d643 573d
00000060: 5845 bb3d c667 d6b9 1cd2 893e ccd3 b63c
00000070: ce25 d3bb 15d8 00bd c733 983c adfe a33e
00000080: d6f2 863d ee6a 2d3d fd94 49bd f910 8f3d
00000090: 660a f93d 99d5 a53d 22e5 5ebd 1062 52bc
000000a0: 1a85 ec3b 0162 ea3b c88e b43d 73d0 a43d
000000b0: 93d6 663d a55a d83a be9a 803d e4dd 513d
000000c0: 7bf9 ad3d e6d6 ce3c e11a 483d fa69 cd3d
000000d0: 3461 393d 3eb8 493e 1e04 9c3d f768 6a3d
000000e0: a7a2 d13d 82d1 553d f05f e13d 54ff b93c
000000f0: a5f9 543d 7eec 22bd 86b0 543d 3e7c 983c
00000100: e5fa a53d 6e9d 783d 6186 b6bd 2a6a 1f3e
00000110: f7c7 193d 8df8 3f3d 14a3 b03d f9cc 8d3d
00000120: d760 003d cc84 1d3d f76f f83d 91db b03d
00000130: bea1 ab3d 46a6 2cbe 3484 f83c fbf9 393e
00000140: b7e2 753c 5969 ad3d 9c87 713d ab0a 363c
00000150: fbbd 913d 40fe 893d 90f8 d43d 05d3 b43d
00000160: 15c7 773d 9c24 ee3d 8e5e f73d 91ca 0f3e
00000170: d29d 583e 7493 5a3c 5a4b f93d 0c32 d03c
00000180: c009 673d bbc4 f5bb 23ef e4bb 6e3b 953c
00000190: 80db b33c 7f31 b73d 5e07 fc3a 8972 273d
000001a0: ffad a13d 0a83 123e 62af 473e fa8c fd3c
000001b0: 8fb0 433d c833 df3d 2cfa 20bb 322a 103e
000001c0: 722d db3c 7f03 373e 9780 5e3d 12ad 053d
000001d0: 4b50 3c3d afe2 943d 205e 97bc 407c 503d
000001e0: 268e 483d 8ca7 7d3d 51e5 86bc ffcd f03c
000001f0: 4a4b b8ba cb75 413e 7b74 71bd cb98 c73d
0.026818896 0.16658787 0.35938415 0.032083515 0.12473676 -0.051450178 -0.094725795 0.033117216
0.07253181 0.017557349 0.0874855 0.08590449 0.054513864 0.08855981 0.08360861 0.09021724
0.064876646 0.041132312 0.025543451 0.08268786 0.11487936 0.015586592 -0.027346095 0.052554928
0.09144086 -0.00040894578 0.26918113 0.02231779 -0.0064437157 -0.031456072 0.018579377 0.3203024
0.06589286 0.042338304 -0.049214352 0.06985659 0.121601865 0.08097381 -0.054417737 -0.012840763
0.0072180154 0.0071527963 0.08816296 0.08047571 0.056356978 0.0016506506 0.06279515 0.051237002
0.0849485 0.025248956 0.04885376 0.10029979 0.045258716 0.19699189 0.07617973 0.05722901
0.102361016 0.052201755 0.11004627 0.022704758 0.051995892 -0.039776318 0.05192616 0.01861393
0.08104495 0.06069701 -0.089123495 0.15567842 0.037544217 0.046867896 0.08624855 0.06923861
0.031342354 0.038456723 0.121307306 0.08635629 0.08380459 -0.16860303 0.030336477 0.18161766
0.015007666 0.08467359 0.058967218 0.011110942 0.07116314 0.067379475 0.10398972 0.08829311
0.060492594 0.116280764 0.12078582 0.14042117 0.21153954 0.01334082 0.12172575 0.02541449
0.056405783 -0.0075002587 -0.006986515 0.018216815 0.021955252 0.089449875 0.001922827 0.040880714
0.07894515 0.143078 0.19500497 0.030951012 0.0477758 0.10898548 -0.0024563177 0.14078596
0.026755068 0.17872427 0.05432185 0.032635756 0.04597501 0.07269799 -0.0184775 0.050899744
0.04896369 0.061927363 -0.016466768 0.029395102 -0.0014060524 0.1889259 -0.058948975 0.0974594

fc.2.weight f4 [64, 128]
00000000: 7254 a43c c58a 303d 223a d53c dd04 3f3d
00000010: 3f0c 4f3d 2a79 a13b 427e 9cbd 1899 89bb
00000020: 312b 393d 92d0 e43d 2574 07be 9fe4 55bb
00000030: 2033 13be 9bee b7bd 3695 c83d 2346 82bd
00000040: 9e91 ff3d 956a 083b 941d 3cbc 3e0d e4bc
00000050: 25ff 133e cf88 123d 62db 113c f624 e13c
00000060: b889 013c c41d 5a3d a580 fe3c 5a66 7d3b
00000070: d0ec 9d3d 5a5d b5bd 1242 7ebd ced8 963e
00000080: 25d4 a83c 35b0 f0bd 98e2 de3c b3c6 72bc
00000090: 899d 103e bc27 f63b 6125 883c 01f6 d0bc
000000a0: cb93 acbd c106 64b8 16fd 963d d185 5c3e
000000b0: 2690 51be a5c4 d9bc f04d 0fbe ba2d 48be
000000c0: 6024 913d 24b5 2e3e 3d11 88bc 7955 3e3d
000000d0: 397d 183d 40d5 ab3d 2aee 7ebd d2f2 40be
000000e0: 9f3c 133b 2f9b 1abd f0c3 043e a16f 21bd
000000f0: cf3e d93e 7198 9b3e 4734 f5bd cc36 bbbd
00000100: d45f 893c b84a e2bc 784d 58be 0f4f 633e
00000110: 60d9 103e c396 40bc 295c c8bd f8d5 cabd
00000120: 2318 20bd cfe7 b13c e5fd 463e e43b 133d
00000130: fabc ea3b 67da 8b3b 97a5 5c3c 0ab5 ecbc
00000140: e42e 81bd a1e8 1a3e ada7 093e a935 293e
00000150: 4192 98bc 440c 033d d8bb 0f3e 7ab7 82bd
00000160: 7413 68bd cbcb eb3b 8d32 c83d 42b6 4c3e
00000170: 3f59 143e 2219 1fbe 94f2 09bc 8c39 a93d
00000180: 206f b43d 6e36 94bc 3f51 9ebe 9865 e8bb
00000190: a916 a63d 9e08 46bd 6370 273d 6a66 c03c
000001a0: 0ba2 80bd 5626 afbc ddbf 373e 9f0e 3b3d
000001b0: 8d3d aa3c 90b9 693e d1ba b2bd 88dd df3d
000001c0: a1e0 75bc 8036 33bd edd1 9ebe 63c1 ec3c
000001d0: 0093 8b3d 25cb 25bd 8eb9 813a 44bf d4bc
000001e0: 8c09 25bc 6df2 ee3a 51a2 b63c 2805 28bd
000001f0: cc0c 01bc b61a 833d 2283 183c a372 18bd
00000200: b03d 6e39 4dfb 55bd cda3 13bd f294 b9bb
00000210: 9645 f63d 85a3 6f3c d5a4 b73c 3669 90bc
00000220: 7fc7 523d d291 14bb 6167 c4bc a67c caba
00000230: a213 f1bc 97c3 ffb7 6306 94bb 1cea e2bb
00000240: 9d74 3f3c 2bc6 693b 49af d13b a250 4dbb
00000250: 1267 cc3c 463a a93c 3118 a7bd ab9f c5ba
00000260: 1a08 de3a 3fba 26bc 9663 42bd 141e 673a
00000270: 21ce 0d3b 8efc 623d c288 433c 84c3 963d
00000280: af0a 6a39 9bd3 cdbc 10c8 debc de76 c0bc
00000290: c60a e83d a0ec 5d3d 258d bbbc 4b80 033b
000002a0: aaa4 4f3d d934 403c 0303 0cbc a801 253d
000002b0: edd6 df3c 2ffe c3ba 9b3a e4bb d42e 39bd
000002c0: 8962 0f3d 0e32 47bd 8883 6a3d fe26 d3bb
000002d0: a4f6 a53b 7ec3 a1bc ad07 07bc 2120 14bd
000002e0: cc79 2f3b 428a d2bc aed3 803c 4a10 683c
000002f0: 5877 73bd 9ced 88bd 84f3 00bd 83d8 b43d
00000300: 4e03 0dbc 38f0 b6bc 0eb5 0c3d 5afa f73a
00000310: 39b3 98bc bde6 7dbb a2c3 4e3d f70d 7fbc
00000320: 1fdb 73bc 7527 013c 081d 083e e84e ec38
00000330: 1bb5 0fbc b706 b83b 286d 02bd 0952 4abd
00000340: 5f1f 1bbc 7f3b 6d3c 4e16 7b3c a4b7 673d
00000350: 8fdd b73d 10e0 9bbb dc35 e33d c26d 1a3d
00000360: c80b 22bd 906a 103d 91e3 25bc 1c99 653b
00000370: ed2b 2d3d 535a 233d 5c72 763b 1239 263d
00000380: 0941 5abc 635b ca3c 8ff3 8abd 500a bd3b
00000390: ea5a c03b fe41 64bc 4b60 903c d1cb c13d
000003a0: 024c 3abd 967a 913c e5bc e83c 2f12 383d
000003b0: 8102 c9bc 2668 003d 35b9 493d e6f4 1bbd
000003c0: f6f2 833c 0da8 473d a7fb 2a3c 0998 27bc
000003d0: 19fa 283c c3dd 153c 9247 7abc 5ab9 983c
000003e0: 423e 12bd f043 453c ecc2 0b3b ed69 663c
000003f0: 92b8 5e3c 230d 4fbd d847 463c c5bd 27bb
0.020059798 0.04310109 0.026028696 0.046635497 0.05054879 0.004927774 -0.07641269 -0.0041991584
0.045207206 0.11172594 -0.132279 -0.003263749 -0.14374971 -0.08981057 0.09794085 -0.06361034
0.12478946 0.002081548 -0.011481661 -0.027838346 0.14452799 0.035775002 0.008902403 0.027483445
0.00790637 0.053251043 0.031067202 0.0038665743 0.07711184 -0.08855696 -0.06207473 0.29462284
0.02060897 -0.11752359 0.027207658 -0.014817881 0.14122595 0.007512061 0.016619386 -0.025507929
-0.08426627 -5.4365726e-05 0.07372491 0.21535422 -0.20465145 -0.026583025 -0.13994575 -0.19548693
0.07087016 0.17061287 -0.016609782 0.04646823 0.037228797 0.083902836 -0.06223885 -0.18842629
0.0022466553 -0.03774565 0.12965369 -0.0394131 0.42430732 0.3038974 -0.11972862 -0.09141311
0.016769327 -0.02762352 -0.21123302 0.22198127 0.14145422 -0.011754694 -0.09783203 -0.099040926
-0.03908552 0.02171698 0.1943279 0.035945788 0.007163641 0.004267979 0.013467214 -0.02889492
-0.06307772 0.15127803 0.1344287 0.16524376 -0.018624427 0.03199412 0.140365 -0.063826516
-0.056659177 0.007195925 0.09775267 0.19991401 0.1448717 -0.15536931 -0.008419652 0.08262929
0.08810258 -0.01809236 -0.3092136 -0.007092189 0.08109791 -0.04834806 0.040878665 0.023486335
-0.06280907 -0.021380585 0.17944284 0.04566824 0.020781303 0.22824693 -0.08727039 0.109309256
-0.015007169 -0.043753147 -0.31019536 0.028900808 0.068151474 -0.040476937 0.0009897219 -0.025970109
-0.010073077 0.0018230207 0.022294195 -0.041020542 -0.007876586 0.06401579 0.009308608 -0.0372187
0.00022720429 -0.052241612 -0.036044884 -0.0056635076 0.12024991 0.014626388 0.022417465 -0.017628293
0.051459786 -0.0022669923 -0.023975076 -0.0015448525 -0.029428307 -3.0489447e-05 -0.004517363 -0.0069248807
0.011685518 0.0035671096 0.0063990694 -0.0031328578 0.024951492 0.02065767 -0.08158911 -0.0015077492
0.001693967 -0.0101762405 -0.047458254 0.00088164327 0.0021637755 0.055416636 0.011934461 0.073615104
0.00022319959 -0.025125315 -0.027195007 -0.02349418 0.1133018 0.05418074 -0.022894451 0.0020065482
0.050694145 0.01173135 -0.00854564 0.040284783 0.027324164 -0.0014953072 -0.006964994 -0.045210674
0.03500608 -0.04863172 0.057254344 -0.006443857 0.0050648022 -0.019746538 -0.008241576 -0.036163453
0.0026775477 -0.025700692 0.015725937 0.01416404 -0.059439987 -0.066859454 -0.031482235 0.08830359
-0.008606745 -0.022331342 0.034352355 0.0018919215 -0.018640148 -0.0038742267 0.05047954 -0.015567294
-0.0148837855 0.007882942 0.13292325 0.000112680544 -0.008771206 0.005616035 -0.03184238 -0.04939464
-0.009467929 0.014479517 0.015325142 0.056571618 0.08977806 -0.004756935 0.11094257 0.03770233
-0.039562017 0.035257876 -0.010125057 0.0035033887 0.04227822 0.03988106 0.0037604785 0.04058177
-0.01332117 0.02470178 -0.06784736 0.0057690516 0.005870213 -0.013931749 0.017624041 0.09462703
-0.045482643 0.017758649 0.028410384 0.044939216 -0.024537327 0.031349324 0.049248893 -0.03807535
0.016107064 0.04874425 0.010435975 -0.010229119 0.010313534 0.00914711 -0.015275853 0.01864307
-0.035703905 0.012040123 0.00213259 0.014063341 0.01359381 -0.050549638 0.01210209 -0.002559529

fc.2.bias f4 [64]
00000000: 3558 7f3d 8f88 82bc a845 613c 0379 033d
00000010: f5dd 753d 4fb7 773d fa25 513d df7c b33d
00000020: 053f 48bc bade 0a3d f386 0cbd 8d61 b33d
00000030: 3923 9f3d 6837 373d 9832 6a3c e06e 473c
00000040: 5529 123d e212 113d 147e d13d c7ef a93c
00000050: 95c0 3b3d 75a7 133d e420 1a3c 0a30 1d3d
00000060: 43d3 b33c 8cc0 373d 06d7 053d 088b 083e
00000070: c3d1 06bd 1578 e23c 3736 5b3d 5182 0d3d
00000080: c105 c23c 17b7 393d c250 ac3c d499 913c
00000090: 720c ac3c 804d ec3b cafa 343d 807b 0c3e
000000a0: 7b3f d0bc b8bb 8e3d e810 4ebd 1c66 7b3c
000000b0: 3a46 ec3c 92fd 1b3d 04e9 f33c f5e4 b83c
000000c0: f6da e53c a7f6 f13c e730 ae3b 4c8e 023d
000000d0: ac75 6f3d 5257 8f3c 8e21 ea3c f1ac 12be
000000e0: 14ed 1f3d 8276 073d f324 153d c6bf 633d
000000f0: d607 693d 86d0 ed3c c9b2 88bd bd4a 203d
0.06233998 -0.015934257 0.0137495175 0.032097828 0.060026128 0.06047755 0.051061608 0.08764052
-0.012222056 0.033903815 -0.034308385 0.08758841 0.0777039 0.044730574 0.014294289 0.012172431
0.03568395 0.0354184 0.102291256 0.020744218 0.045837957 0.03604837 0.009407256 0.03837589
0.021951323 0.04486136 0.032675765 0.13334286 -0.032914888 0.02764515 0.0535185 0.034548108
0.023684384 0.045340624 0.021034602 0.017773546 0.021002028 0.007211387 0.044184484 0.13718987
-0.025420895 0.06969398 -0.05030909 0.015344169 0.02884208 0.03808362 0.029774196 0.022570113
0.02805851 0.029536558 0.005315888 0.031873986 0.05846183 0.017497692 0.028580453 -0.14323784
0.039044455 0.033072002 0.03641219 0.05560281 0.05689224 0.029030096 -0.066747256 0.039133776

fc.4.weight f4 [32, 64]
00000000: 2742 c73e 93ad 153d c87c ccbd aa80 b5bd
00000010: f482 c83e 7348 a63e 4dea c83d 80ad f73e
00000020: 6890 67be d701 54be 615d f03c 2304 963e
00000030: 6bf5 62be 98e5 9f3e 48a6 febb 55d4 10bd
00000040: 6c58 7dbd 904f c73e c4d8 e83e 9066 5f3d
00000050: c6ea a6ba d206 cebc 0d9a 06be be74 e03d
00000060: 93a7 773e 6f4f 7b3e 003c 6bbe 4153 863e
00000070: c67e a43d 4692 f0bd 16eb 663e 8d90 4c3e
00000080: e001 14bd 94eb f33d f0a8 043e dda5 cfbd
00000090: a57c fbbd c733 26be bc49 1d3e 77b5 58bd
000000a0: 5673 39be f389 903e d492 94bd b6d2 f5bd
000000b0: ecc5 f5bd 4528 db3d 2837 c5bd ca1d 413d
000000c0: c8e6 a13d 06d6 adbd edba 913e 8212 8a3d
000000d0: 3050 c1bd b7a8 5cbe b773 4ebe c17c aabe
000000e0: c697 2b3e 4b7d 933e 04cf 25bc b292 66ba
000000f0: 09be a53d a66f 17be ce52 cd3e 2d89 38be
00000100: 841c 28a7 4e75 47a6 94e3 f9a6 87b0 05a7
00000110: bcb6 bda6 cd79 b9a6 5e96 23a7 177f baa6
00000120: 0533 9825 6442 77a6 c187 0f26 71b1 85a6
00000130: d0b7 1aa6 bef2 18a7 afd4 17a7 b35e cda6
00000140: 1663 01a7 9bd9 3ba7 784e 0ea7 af96 1ca7
00000150: b4cd 0ea7 6a1d e0a5 0d3a 15a7 d7e7 15a7
00000160: baba d3a6 4156 c9a6 09b9 eca6 227e a1a6
00000170: e873 3d26 854e d2a6 e018 eea6 ef89 d8a6
00000180: 02a8 18a7 7b51 04a7 c55a 56a6 28c5 9aa6
00000190: d712 faa6 6511 1ba7 b88f bda6 a3c0 a5a6
000001a0: e951 57a6 1bbf eba6 ae0a ec25 7271 10a7
000001b0: 0df8 c2a6 4814 0ba7 c191 e8a6 d43b 27a7
000001c0: 679c 16a7 10f3 e825 a7c7 efa6 6fc8 e8a6
000001d0: 7709 c2a6 3620 baa6 ce51 bea6 654d c724
000001e0: d004 07a7 28e5 3ba5 c031 bfa6 49ab d4a6
000001f0: 2035 97a6 4af7 06a7 7b8f 8c26 3b77 f8a6
00000200: 8b84 9ea5 5f64 b8a4 ee50 e9a4 8483 d8a5
00000210: 6dc0 dea1 75ee f724 e51f 8624 7528 8f25
00000220: 2fe4 ffa5 0edc 5da5 c752 d0a5 6976 9623
00000230: f78b 49a5 34e2 ffa5 03cf 86a5 e5a3 9ba3
00000240: 86bf e4a5 4790 18a6 8ec7 0c25 2721 0ba6
00000250: 8f3a baa5 9c47 0ca4 5e98 b9a5 eea9 0ea6
00000260: aa87 10a5 8233 eca3 e227 bba5 8b3b 0d25
00000270: 9693 04a6 5d74 b4a5 884b 9623 ad3b 3ba4
00000280: 59ce a4a5 d3b9 71a5 59e9 6da4 5bb9 0526
00000290: fbe7 d0a3 7ade dea5 703d b2a4 b98b 57a4
000002a0: edcb 0623 d3b4 7d25 0208 c5a3 6c5c dca5
000002b0: adb4 96a4 b319 dba5 ec99 82a4 4b02 0fa6
000002c0: a78d fda5 52cd c924 4d2c e023 a51f 0c24
000002d0: 196a 98a5 da2d bfa4 4d47 14a4 984d fd24
000002e0: 33d6 03a6 a673 fc25 239a 87a3 9f59 d024
000002f0: cfd2 9123 2e10 c2a5 8203 05a3 81bb 2223
00000300: 0c62 722f 54e2 652d fc28 832f c719 652f
00000310: 8d5e 962e d7a5 6a2d 9da6 88af 8a38 04ae
00000320: 32a3 43af 3577 f62e 04f4 0d2d 0bed 9c2d
00000330: 16f6 af2e f6d5 662f 3b46 7d2f a424 912d
00000340: 09fd 272f 8bc9 4d2f 4fff fb2d 6e81 3d2f
00000350: d8cb 732f d45e a42d e64e 7a2f a59e 5d2f
00000360: 7204 d62e bc2f 9b2e b919 1f2f a97b c72d
00000370: 3ba9 7aae d582 202f ba74 672e b15d 732e
00000380: 735e 782f f055 822f 65ea a22e ab7d 5f2f
00000390: 458b 822f a788 6f2f d3f3 bd2e 0e4e 92ae
000003a0: c11c 59ac 6911 c9ae 4ca3 0e2d b1c0 392f
000003b0: 9d94 c0ae 3698 282f 8b0d 902e bd3c 532f
000003c0: ca66 632f 13e6 4b2e 4729 14ad 3f92 7e2f
000003d0: 6b92 162f b708 062e f0dd 67ac 727e 6aae
000003e0: dad7 532f f67a 402f 3ae3 1c2e e172 36ae
000003f0: ad00 1b2e e46d 742f 0b89 d0ae a59e ed2c
0.38917658 0.036542486 -0.09984738 -0.08862431 0.3916241 0.3247715 0.09810314 0.48374557
-0.2261368 -0.20703827 0.029341402 0.2930003 -0.22163932 0.31229854 -0.007771287 -0.035358746
-0.061851904 0.3892789 0.4547788 0.05454117 -0.0012734763 -0.025149737 -0.13144703 0.10959767
0.24185018 0.2454202 -0.22972107 0.26235393 0.080319926 -0.117466494 0.22550616 0.19977017
-0.0361346 0.11910167 0.1295507 -0.10139058 -0.122796334 -0.16230689 0.15360159 -0.052907433
-0.18110403 0.28230247 -0.07254568 -0.120030805 -0.12000641 0.1070104 -0.09629661 0.04714755
0.07905346 -0.08488087 0.28462926 0.06741811 -0.09439123 -0.21548735 -0.20161329 -0.33298305
0.16757116 0.28806528 -0.010120157 -0.0008795663 0.08092887 -0.14788684 0.40102237 -0.18021078
-2.3330142e-15 -6.920097e-16 -1.7339531e-15 -1.8553153e-15 -1.316404e-15 -1.2869968e-15 -2.2702308e-15 -1.294079e-15
2.640237e-16 -8.5785316e-16 4.979707e-16 -9.276824e-16 -5.3678595e-16 -2.1225828e-15 -2.1070756e-15 -1.4250401e-15
-1.795606e-15 -2.6069427e-15 -1.9748997e-15 -2.1731035e-15 -1.981797e-15 -3.8877738e-16 -2.0709373e-15 -2.0803584e-15
-1.4691678e-15 -1.3970556e-15 -1.6425943e-15 -1.1205808e-15 6.572963e-16 -1.459296e-15 -1.652131e-15 -1.5025398e-15
-2.1185315e-15 -1.836285e-15 -7.436918e-16 -1.0739336e-15 -1.7352341e-15 -2.152e-15 -1.3153465e-15 -1.1501389e-15
-7.470412e-16 -1.63582e-15 4.094671e-16 -2.0045513e-15 -1.3528688e-15 -1.930112e-15 -1.6137741e-15 -2.3208339e-15
-2.0901468e-15 4.041029e-16 -1.6638072e-15 -1.6152561e-15 -1.346402e-15 -1.2915073e-15 -1.3206072e-15 8.6433604e-17
-1.8737622e-15 -1.6297306e-16 -1.3266772e-15 -1.4756882e-15 -1.0492129e-15 -1.8730291e-15 9.753342e-16 -1.7240774e-15
-2.7498446e-16 -7.9967315e-17 -1.0118474e-16 -3.7559146e-16 -1.509424e-18 1.07523137e-16 5.816727e-17 2.483396e-16
-4.4390072e-16 -1.9243252e-16 -3.613834e-16 1.6313181e-17 -1.7481393e-16 -4.438873e-16 -2.338557e-16 -1.6874546e-17
-3.9681477e-16 -5.2931126e-16 1.2210676e-16 -4.827024e-16 -3.2305537e-16 -3.0418316e-17 -3.2195632e-16 -4.9496444e-16
-1.2535974e-16 -2.5608986e-17 -3.2466355e-16 1.2249974e-16 -4.5996716e-16 -3.1303873e-16 1.6295021e-17 -4.059971e-17
-2.8589292e-16 -2.0966378e-16 -5.1588836e-17 4.639485e-16 -2.2649653e-17 -3.8661617e-16 -7.7299274e-17 -4.6739043e-17
7.3073375e-18 2.2005518e-16 -2.1362174e-17 -3.8226544e-16 -6.535821e-17 -3.8007859e-16 -5.663927e-17 -4.96162e-16
-4.398449e-16 8.751768e-17 2.430489e-17 3.0384465e-17 -2.6439691e-16 -8.291072e-17 -3.215278e-17 1.0985271e-16
-4.574005e-16 4.3793398e-16 -1.4702009e-17 9.0357445e-17 1.5810212e-17 -3.36646e-16 -7.210687e-18 8.821743e-18
2.2044605e-10 1.3067398e-11 2.3857882e-10 2.0836587e-10 6.838006e-11 1.3338184e-11 -2.4856642e-10 -3.0063542e-11
-1.7793125e-10 1.120796e-10 8.069104e-12 1.7840415e-11 8.001792e-11 2.0994392e-10 2.3035167e-10 1.6500863e-11
1.5278458e-10 1.8716244e-10 2.8648776e-11 1.7235433e-10 2.2173141e-10 1.8686754e-11 2.2765398e-10 2.0156195e-10
9.732383e-11 7.057063e-11 1.4470104e-10 2.2678597e-11 -5.6993726e-11 1.4598396e-10 5.2626993e-11 5.5335018e-11
2.2589024e-10 2.3707925e-10 7.408544e-11 2.0326378e-10 2.374582e-10 2.1785472e-10 8.638037e-11 -6.6531766e-11
-3.0853516e-12 -9.1435144e-11 8.108025e-12 1.689411e-10 -8.757548e-11 1.5333587e-10 6.5507676e-11 1.9211917e-10
2.0682048e-10 4.6361203e-11 -8.421991e-12 2.3153122e-10 1.3694439e-10 3.0475813e-11 -3.2950274e-12 -5.3317746e-11
1.9267024e-10 1.7505983e-10 3.567211e-11 -4.1484042e-11 3.524352e-11 2.2230712e-10 -9.4830886e-11 6.753558e-12

fc.4.bias f4 [32]
00000000: 0e3c 233d 8c64 06a7 f36c c7a5 2f8a 312f
00000010: 57cf 913a fe7e a23c c775 163d 39d9 0b3d
00000020: d4bf 303d 4b18 4e3c ce0d 0000 101a 2a3c
00000030: 0bd6 aa21 99bd 8a39 24f3 1c3d e6ca 283b
00000040: 1204 b3a6 3692 bb3c 8b65 7cb0 b5e8 17bc
00000050: ef2d c53c fba1 10b5 94c5 923c c7e7 ec3c
00000060: 9de4 703c d7ab ef3c 664e 23bb 8da0 02b7
00000070: a3d8 49a8 cae8 fdb3 407b bb3c 2d24 013d
0.039852194 -1.8650742e-15 -3.4594824e-16 1.6147149e-10 0.0011124414 0.019835945 0.036733415 0.034142707
0.04315169 0.012579034 4.952e-42 0.01038219 1.1576305e-18 0.00026462672 0.038317814 0.0025755703
-1.2421723e-15 0.022896867 -9.1821367e-10 -0.00927179 0.024069754 -5.3879893e-07 0.017916478 0.028919114
0.014702943 0.029256744 -0.0024918555 -7.785985e-06 -1.1204717e-14 -1.1823575e-07 0.022885919 0.03152864

fc.6.weight f4 [16, 32]
00000000: aff7 fdbc 5da5 eea5 3672 2127 6bf0 fe2e
00000010: 3eb6 dcbe 47a8 5fbc b046 e63e 7836 863e
00000020: 2fe6 1d3f 0072 3f3e 460e 0080 43e2 3dbe
00000030: ff8a 0223 c247 4abe b266 d4bd 01f7 1c3e
00000040: 88f1 0f26 02eb b9bd 1f4a 6f31 7845 df3d
00000050: 9367 f83e 42d5 6a35 3d04 5bbd 452b f93d
00000060: 22e4 b03e 05de 023f d415 103e 89ef 6339
00000070: 5262 ee28 1a53 2634 1b83 91bd 9f1c 43be
00000080: 4236 88be 868a e9a6 0b7f b5a6 0d14 39ae
00000090: a63a 2c3f a0a5 ac3e f74b efbd 3905 673e
000000a0: 5190 55be d494 a3be 010e 0080 94b6 c83e
000000b0: 099b cca2 9bde 433e 1f88 cb3d 7c7f f6bd
000000c0: 6c64 e326 6e4c 753e c697 edaf 24c0 c13e
000000d0: 9cb7 37be 34f4 fcb1 a889 cc3d 0242 ff3e
000000e0: 5817 8cbe aa25 8e3a 2e69 92bd e138 5139
000000f0: 0b6d 4da9 ea25 ca33 314d 5d3e b29e 393f
00000100: 2c28 de3d 749d 08a6 d141 c4a6 5ec5 83ae
00000110: 60f3 4f3f 6fa6 76bd c11c 6bbe d255 a2be
00000120: ff0c 0ebf bd48 493e d00e 0080 3682 203e
00000130: 80a7 c0a2 2689 043f 0884 6d3c f1df cd3e
00000140: 4921 8f26 df08 883e c555 12b0 c46c b63e
00000150: ba60 9dbe a9ce 2d32 1796 363e daef d73e
00000160: d7cc 8f3e f9d3 18be afc8 bebd 12a0 063a
00000170: 552a c627 be51 8332 202a 203f 1e6e 053f
00000180: 3204 bc3e c026 7826 8d84 6fa6 2aa8 ddad
00000190: 51de 343e 0d8c 7c3e 9578 0b3e f1c4 883e
000001a0: efac 35be 44fd 26be cc0d 0000 9af7 a33e
000001b0: 57ee 4a22 dfdc 11bd 3850 9f3e cbd0 553e
000001c0: 5bb0 8b26 e512 9a3e a833 bc2f c25a a23d
000001d0: e222 903c 6da5 8433 beb9 063d bfc0 8fbe
000001e0: b056 643e 8ad4 5c3e 293d 18bd 7398 9f39
000001f0: bf0e 0329 5e70 a933 44b3 b43e b39b 8b3e
00000200: 2f2c e63d 3c00 8126 6276 d125 55e8 e12e
00000210: 4c77 5c3e 6413 9c3e 6a88 15be d7f2 a53e
00000220: 3269 f3be c2ff fdbe 680f 0080 158f 3c3e
00000230: 88c4 5922 0fb1 93be 5b4e e9bd fa04 f0bd
00000240: b4df aaa4 a7a2 763e 9368 efb0 b521 c1bb
00000250: 3b67 033d de59 fd31 6d44 193e 1e1a bf3e
00000260: ea0e 9b3d 2c8d a73e b9d0 d9bc fc73 9cb9
00000270: cda3 5b28 cd66 05b4 033d e23e 757a 483f
00000280: 79aa 52be cfb1 8027 0f63 9ea6 3ce4 39ae
00000290: a081 2c3d 73ae 5c3f 0ec9 babd 790b 233f
000002a0: 3523 1b3d 0c9c b9be b60d 0080 9b3c 433e
000002b0: 17fc 88a2 1827 b43d 34c8 8e3e 35fd d7bd
000002c0: 4b14 0b27 2ed0 003f 3184 36af 312b 0a3e
000002d0: 3572 82bd 3cb7 1bb4 72b9 a3be 58e4 6ebe
000002e0: c9a0 22be 56e1 ce3e 9cf9 b7bc 5f41 d738
000002f0: 48cf be29 0ce8 f4b3 b44f 623d b1c4 3bbd
00000300: e6cb 853e ca83 9726 2fc5 b126 a8d2 1f2f
00000310: 10d1 77bd cd6e c13d 7854 af3e 8a53 283f
00000320: 96dc ae3e 4271 e7be f10d 0000 a039 ab3e
00000330: 6160 0023 bfe7 cabe da67 1e3d 4315 0a3d
00000340: 51cf 4326 a58f a1be 5254 bd30 6052 65be
00000350: 3c2c 243f 4701 3235 e5dc 313e 2eab 52bd
00000360: 9989 163e cf8f 813e 89aa bd3d abe3 0e38
00000370: 423d bc29 04e4 f733 a123 4ebe 3055 d33e
00000380: 735b 5cb4 689f cc2c d57b f31d 3099 8234
00000390: 9678 e7b4 58a5 69b4 8915 94b4 7f59 89b4
000003a0: 374d a1b4 41bc 9db4 ef0d 0000 3f08 b7b4
000003b0: 1ee4 8f34 7d4a c2b4 9be8 86b4 586b a1b4
000003c0: f40b 0f9f fad0 bbb4 0513 84ae 4082 dbb4
000003d0: 72cd 1cb4 0714 3933 365c 16b4 a536 d3b4
000003e0: 8bfc b5b4 e0cb c3b4 49f1 3333 8fcc 02b3
000003f0: 8b3c 1220 6d74 c7b6 7362 c7b4 41f3 cbb4
-0.031001894 -4.1398473e-16 2.2405152e-15 1.15932895e-10 -0.4310779 -0.01365096 0.44975805 0.2621343
0.6167936 0.18695831 -5.12e-42 -0.18543343 7.076748e-18 -0.19753936 -0.1037115 0.153286
4.9940427e-16 -0.09078027 3.482121e-09 0.10901922 0.4851652 8.7482124e-07 -0.05347084 0.12166456
0.34549052 0.51120025 0.14070827 0.00021737641 2.6465948e-14 1.5490187e-07 -0.071050845 -0.19053887
-0.26603895 -1.620517e-15 -1.2593833e-15 -4.208194e-11 0.6727699 0.33720112 -0.11684411 0.22560586
-0.20855834 -0.31949484 -5.024e-42 0.39201796 -5.545846e-18 0.19127886 0.099380724 -0.120360345
1.5778509e-15 0.23954937 -4.321789e-10 0.37841904 -0.17941135 -7.361928e-09 0.09987193 0.49855047
-0.2736156 0.0010844965 -0.07148968 0.00019952982 -4.5613724e-14 9.4132545e-08 0.21611477 0.72507775
0.10847506 -4.7397867e-16 -1.3618072e-15 -5.99225e-11 0.81230736 -0.060217317 -0.22960187 -0.317061
-0.5548858 0.19656654 -5.314e-42 0.15674672 -5.221905e-18 0.5177177 0.014496811 0.40209916
9.93164e-16 0.26569268 -5.3236376e-10 0.35629857 -0.3073786 1.0116914e-08 0.17830692 0.4217518
0.28085968 -0.14924611 -0.09315621 0.00051355467 5.5001936e-15 1.528758e-08 0.6256428 0.5212115
0.3672195 8.60948e-16 -8.309942e-16 -2.5199471e-11 0.17662932 0.246628 0.13620217 0.26712754
-0.1774175 -0.1630755 4.95e-42 0.32024843 2.750228e-18 -0.03561103 0.3111589 0.2088043
9.692864e-16 0.3009254 3.4233705e-10 0.07927467 0.017594758 6.17682e-08 0.03289198 -0.2807674
0.22298694 0.21565452 -0.037167702 0.00030440427 2.9100633e-14 7.890115e-08 0.3529302 0.27267227
0.11238896 8.951237e-16 3.633594e-16 1.0273086e-10 0.21529883 0.30483544 -0.14602819 0.32411835
-0.47541195 -0.4960919 -5.527e-42 0.18413956 2.9513027e-18 -0.28846022 -0.11391898 -0.11719699
-7.4104716e-17 0.24085484 -1.741926e-09 -0.005893911 0.03208087 7.373486e-09 0.14967509 0.37324613
0.07571204 0.32724893 -0.026588785 -0.00029841054 1.2192461e-14 -1.2423989e-07 0.44187173 0.78311855
-0.20572843 3.5719917e-15 -1.0990302e-15 -4.2266843e-11 0.042115808 0.8620369 -0.091203794 0.6368938
0.037875373 -0.36251867 -4.919e-42 0.19066088 -3.7129784e-18 0.08796519 0.27887118 -0.10546342
1.9301126e-15 0.50317657 -1.6599767e-10 0.13493039 -0.063694395 -1.450216e-07 -0.3197742 -0.23329294
-0.15881647 0.40406293 -0.02245789 0.00010264175 8.4736526e-14 -1.14043445e-07 0.055251792 -0.045841876
0.26132125 1.0513451e-15 1.2335289e-15 1.4535806e-10 -0.060502112 0.09444962 0.34244132 0.6575247
0.3415267 -0.45203596 5.001e-42 0.33442402 6.959303e-18 -0.39629933 0.03867326 0.033711683
6.793518e-16 -0.31554905 1.3775525e-09 -0.22394705 0.64129996 6.6312026e-07 0.17369421 -0.05143278
0.14700927 0.2530503 0.092610426 3.406747e-05 8.359504e-14 1.15433096e-07 -0.20130779 0.4127593
-2.0522366e-07 5.8157264e-12 6.4449604e-21 2.4325846e-07 -4.311484e-07 -2.1759968e-07 -2.7582817e-07 -2.5583356e-07
-3.0044768e-07 -2.9380502e-07 4.998e-42 -3.4092406e-07 2.6801803e-07 -3.6189513e-07 -2.5128688e-07 -3.006669e-07
-3.0291315e-20 -3.4983515e-07 -6.0060436e-11 -4.0886698e-07 -1.4603373e-07 4.3091884e-08 -1.4003385e-07 -3.9341572e-07
-3.3897626e-07 -3.646992e-07 4.1896133e-08 -3.045403e-08 1.2386713e-19 -5.944216e-06 -3.713827e-07 -3.7988687e-07

fc.6.bias f4 [16]
00000000: 7a37 8c3c 8cc8 a03c 2970 a1bc 513b 58bb
00000010: 8805 873c 42ba 863a 4e99 763c 1fd4 1634
00000020: 6e38 49bc 90d3 9d3c 0481 2b3c cf8f a83c
00000030: b4d9 0ebc 61ba 963c bc24 85aa 727e 6d3b
0.017116297 0.019626878 -0.019706802 -0.003299434 0.01648213 0.0010278898 0.015051199 1.4047008e-07
-0.01228152 0.01926592 0.010467771 0.020576386 -0.008718897 0.01839942 -2.3651036e-13 0.0036238697

fc.8.weight f4 [6, 16]
00000000: 38b4 66be 4261 203f 2bdb 563f de71 463e
00000010: d48d 5bbe 0a0c 4eba 60ec 3fbe 3250 f9b2
00000020: f418 ab3f 1131 1d3f ddfd 023e 874c 15bf
00000030: 1f6f c83e 7ed5 f1bd 9dbd 082c c180 05be
00000040: 2dab 22be a166 a73e 9bef 623f 2cfe b63e
00000050: a001 7e3f d5e6 2ebe eb85 36be 95f4 9a34
00000060: d54d 36bf 193f 95bc 4fa8 ecbe e967 933f
00000070: 437a 103f 4dcd 0c3e 9f59 b42b 19a7 5b3e
00000080: 2bbb 903d 8dd5 0ebf 263f 043d f47e e53e
00000090: 7ab8 adbe 66fc 1c3e 0c8d d63c 4a97 de33
000000a0: 4b2c 8e3e 3532 a4be 5020 b73f 062e 813f
000000b0: ddaa ecbe f2d0 fbbe c400 57ab 93e9 0e3f
000000c0: 27d7 a4be 237d 083f b68b 5bbd 25ef c13e
000000d0: 137c 4d3f f63a 5b3e cec7 8d3f 9a56 1d34
000000e0: 75c5 d33d 1cae 94be 2e39 b43e 59ce 33be
000000f0: 6921 87bf 41a7 883f a89e d3a9 2fe1 c8bd
00000100: 4068 963d 9157 e03e 2c6e 0dbe 2c95 bf3e
00000110: 4d7e e93e 2749 b73f 0ab6 263e 8498 9f33
00000120: c19a cb3d 27b1 9cbf e01f 843e 6204 0dbf
00000130: 1513 8f3f da33 063d 3b8c 33a9 7821 823f
00000140: 8ae1 a03f a3fb 54bf 07ad 18bf 68b4 7e3c
00000150: 0d56 8fbe df58 83bd 07ae 7e3f f685 8f33
00000160: 5e1f 0c3e 4220 883f e291 8dbe 5a08 933e
00000170: d12a 183f ce0c 7f3f 6d1c 8d2b bb54 2a3f
-0.22529685 0.62648404 0.83928174 0.19379374 -0.21440822 -0.00078600703 -0.18742514 -2.9023884e-08
1.336699 0.61402994 0.12792154 -0.58319896 0.3914728 -0.118082985 1.943202e-12 -0.13037397
-0.15885611 0.32695487 0.8864686 0.35740793 0.9922123 -0.17080243 -0.17824523 2.8862692e-07
-0.7121251 -0.018218564 -0.4622216 1.1516086 0.56436557 0.13750191 1.2814644e-12 0.21450461
0.070669495 -0.557946 0.032286786 0.4482342 -0.33929807 0.15330657 0.026190303 1.03652e-07
0.27768168 -0.32069555 1.4306736 1.009217 -0.46224108 -0.4918285 -7.6384407e-13 0.55825156
-0.32195398 0.53315943 -0.053600036 0.37877765 0.8026745 0.2140921 1.10766 1.465327e-07
0.10340396 -0.29039085 0.35199875 -0.17559184 -1.0557071 1.0676042 -9.397805e-14 -0.09808575
0.07344103 0.43816808 -0.13811558 0.37418497 0.45604172 1.4319199 0.1628038 7.431757e-08
0.09941626 -1.2241563 0.2580557 -0.5508481 1.1177698 0.032764293 -3.9867615e-14 1.0166464
1.2568829 -0.8319647 -0.5963902 0.015545942 -0.2799534 -0.06413435 0.99484295 6.683324e-08
0.1368384 1.0634844 -0.27650362 0.2871731 0.5944033 0.99628913 1.0026542e-12 0.6653554

fc.8.bias f4 [6]
00000000: 3463 77bc 9332 0dbc a5ca a43b f63f 483b
00000010: 6cd7 1639 c1a0 f43a
-0.015099335 -0.008618015 0.00502904 0.0030555702 0.00014385366 0.0018663631
